chapter1/save_reload/net_params.pkl (torch_old, 906 bytes, 3 tensors)

0.weight f4 [10, 1]
0	0xbf38b7a7	-0.7215523
1	0x3f9acac8	1.2093134
2	0x3e7d6970	0.24747252
3	0xbf1239d7	-0.57119507
4	0x3f0c233a	0.5474125
5	0xbf6facbb	-0.9362294
6	0x3f8897a6	1.067128
7	0xbf39f60d	-0.7264107
8	0x3eaf451b	0.3423241
9	0x3e7ce4b6	0.24696621

0.bias f4 [10]
0	0x3e136671	0.14394547
1	0x3ef11f4c	0.4709419
2	0xbed4a8b0	-0.41534948
3	0xbf05edaf	-0.523158
4	0xbf5dd7a0	-0.8665714
5	0xbde5ec3c	-0.11226699
6	0xbef0c19e	-0.47022718
7	0x3c86e37f	0.0164659
8	0xbe2e175a	-0.17001095
9	0x3ea25aff	0.3171005

2.weight f4 [1, 10]
0	0x3efaafd1	0.48962262
1	0x3f127363	0.57207316
2	0xbdd0a10e	-0.10186969
3	0xbd84a25a	-0.064762786
4	0xbe8d3587	-0.275799
5	0x3f222c66	0.63348997
6	0x3f0aa500	0.5415802
7	0x3eb53146	0.35389155
8	0x3e1fe973	0.15616398
9	0xbe43c7ef	-0.19119237
