chapter1/classification/mofan_classification.pth (torch_old, 995 bytes, 4 tensors)

hidden.weight f4 [10, 2]
00000000: 3f23 1f3f c1dc 42bf a97a 9b3e f5e9 ffbd
00000010: beac 3a3f a287 103f 3932 03bf 5d95 ccbe
00000020: a7f2 343f 985c 1a3f 6bc6 89bd 9f05 243e
00000030: 95db 023e 77d4 153e 4281 fdbe 5ba2 d5be
00000040: 3abf 843d 4b02 323f cfe5 3e3f 0eb0 bbbe
0.62163156 -0.76118094 0.3036702 -0.12495796 0.72919834 0.5645696 -0.5124851 -0.39957705
0.7068276 0.60297537 -0.06727298 0.1601777 0.12779076 0.1463183 -0.49512678 -0.4172543
0.06481786 0.6953475 0.7456941 -0.36657757

hidden.bias f4 [10]
00000000: 446c 85be c48a 203f b379 15bf 49a5 243f
00000010: ac87 5cbe 5d01 0cbf 4673 cc3e ff1a 993e
00000020: c2dc 0b3f 0934 113e
-0.26059163 0.6271174 -0.58388823 0.64314705 -0.2153613 -0.5468958 0.39931697 0.2990341
0.54633725 0.14180006

out.weight f4 [2, 10]
00000000: a93f b3bd 5dd9 773c 22dd aa3e 6141 c4be
00000010: b3a7 c33e 6eaf f7bd 8e47 c33c a98d 36be
00000020: 17d0 bf3d 325b d23d 51d8 6a3e 4822 e83d
00000030: ab42 6cbe 53c3 513e 4ceb 4e3d 2a4d e23d
00000040: 4afd 97be 9a84 d93e 65c8 f8be 7305 97be
-0.087523766 0.015127507 0.33371836 -0.3833113 0.38213882 -0.120940074 0.02383783 -0.17827477
0.09365862 0.102713004 0.2293408 0.11334664 -0.23072307 0.20484667 0.050517365 0.11049874
-0.29685432 0.4248398 -0.4859039 -0.29496345

out.bias f4 [2]
00000000: 0857 85bd 0cad 9e3d
-0.065107405 0.0774785
