chapter1/regressions/0.2-regression.pth (torch_old, 1028 bytes, 3 tensors)

hidden.weight f4 [20, 1]
-0.9241305 -0.5813786 0.47170812 0.42231178 0.990881 0.7348589 0.8965498 -0.6581685
1.1088628 -0.73991746 0.45501018 0.87852865 -0.7288167 -0.95115924 -0.6030746 -0.9195167
-0.9976124 0.9891199 -0.13700339 -0.78621054
00000000: d193 6cbf 3ad5 14bf ba83 f13e 4039 d83e
00000010: 61aa 7d3f b61f 3c3f 4a84 653f bb7d 28bf
00000020: 37ef 8d3f 3b6b 3dbf 18f7 e83e 41e7 603f
00000030: bb93 3abf 2c7f 73bf 1963 1abf 7265 6bbf
00000040: 8763 7fbf f636 7d3f 9e4a 0cbe 1845 49bf

hidden.bias f4 [20]
-0.6735688 0.08516294 0.56595016 0.74870336 0.41782963 -0.6573328 -0.4130552 -0.033833954
0.4736366 0.7391225 -0.56369793 -0.87193036 0.110247806 -0.25200596 0.9569375 0.2362742
0.054771096 -0.25636578 0.9324474 0.6928904
00000000: 016f 2cbf e869 ae3d 1ce2 103f 06ab 3f3f
00000010: c4ed d53e f646 28bf f97b d3be 7995 0abd
00000020: 7f80 f23e 2237 3d3f 824e 10bf d436 5fbf
00000030: 9ac9 e13d ed06 81be dbf9 743f ddf1 713e
00000040: a857 603d 6042 83be dfb4 6e3f 4461 313f

tt.weight f4 [1, 20]
0.12673506 0.10696817 0.03012643 0.38616213 0.41721827 -0.051134087 0.28506127 0.21629022
0.38975754 -0.36591896 -0.17478114 -0.16956937 0.08177236 0.36701706 -0.14529611 0.28707492
0.2226632 0.39573497 -0.082227655 -0.21036355
00000000: d6c6 013e 2112 db3d b4cb f63c 0bb7 c53e
00000010: a29d d53e fa71 51bd 8df3 913e 2f7b 5d3e
00000020: 4d8e c73e bb59 bbbe d4f9 32be 98a3 2dbe
00000030: 4478 a73d a9e9 bb3e 81c8 14be 7cfb 923e
00000040: d201 643e c69d ca3e f966 a8bd 8b69 57be
